model/transform_layer.pth (torch, 68104 bytes, 2 tensors)

weight f4 [128, 129]
0.0059621334 0.0811446 0.032254644 -0.068136305 -0.05160142 -0.03276838 -0.0026296377 0.08627646
0.06635861 -0.060124896 0.044791713 0.086040184 0.053991243 -0.020269409 -0.025850885 0.0393793
-0.041108817 0.021172196 -0.055333965 -0.081747554 -0.030438796 0.002778098 -0.050222598 -0.033055995
-0.066916674 -0.064430386 -0.069970846 0.029909983 0.083750606 0.05827409 -0.00040854514 0.07367608
-0.030549023 -0.08152823 -0.026385143 -0.044127975 0.046319008 -0.055598795 -0.03357518 0.0876673
-0.03395586 -0.051436175 0.08507867 -0.06598903 0.058278635 0.05088474 0.044203952 -0.053779226
0.05180557 0.080198064 0.07917987 0.00048995763 0.046162635 0.052626103 -0.03387517 -0.05219815
-0.032766815 -0.007359639 -0.08051166 -0.036553256 -0.03801825 -0.05629835 -0.036100395 0.024372868
-0.021559983 0.04019299 -0.043107763 0.03840086 -0.07510123 0.008516088 0.016444683 -0.02414085
-0.024407737 -0.07871478 0.07989374 -0.020807482 0.046372056 0.0793414 -0.051764023 -0.033992093
0.07911806 -0.07076841 0.042098522 0.045319274 -0.006299436 0.05777675 0.04890874 0.026786387
0.08175343 -0.06449674 -0.044672087 0.02659528 -0.028228056 -0.03371533 -0.08271795 -0.022161372
0.056516096 -0.021605887 -0.08315229 0.041815758 -0.029976424 0.062345266 0.0703394 -0.071836405
0.020987682 0.03259278 -0.03878652 -0.072133124 -0.0036997423 -0.01931116 0.077376604 -0.037154835
0.05235949 0.067120254 0.042238563 0.012599528 0.013786055 -0.020731919 -0.07321333 -0.026304986
0.07429832 -0.028088316 0.019436516 0.03985645 -0.07230102 -0.065278165 0.019181147 -0.063383505
0.054546714 0.032980792 0.06254798 -0.06822547 0.039375633 0.03242065 -0.06625752 0.027465172
-0.018407635 -0.08210104 0.079666555 0.007535666 0.06644927 0.07509905 0.07120761 -0.05605702
0.029932708 0.053927526 0.025681287 -0.019939885 0.013898179 0.06555456 0.0621707 0.01843252
-0.025435112 -0.040136497 0.035072267 -0.027749132 0.04001209 0.023499139 0.073643535 -0.05863124
-0.018862575 -0.043721914 0.072515815 0.07684721 0.03811364 -0.078088924 0.028385453 0.08803439
0.011136673 0.045706138 -0.042189002 -0.020612374 -0.0296368 -0.0012153685 0.0027262717 -0.05105564
0.080330655 -0.0009172708 0.0009576678 -0.025177635 0.00326477 0.07872239 0.021624312 0.0042133555
-0.06899309 -0.07858161 -0.0011369362 0.04058619 0.07580586 -0.04956779 0.028333895 0.021617264
0.05583726 -0.012287065 0.009645484 -0.030945804 0.08784439 -0.042418264 -0.005915247 -0.03793234
0.015131943 0.07758717 -0.043355033 -0.005769588 0.055082202 0.08803995 0.06389661 0.0039706454
0.0772911 0.036904633 -0.08642243 -0.018260032 0.036148474 0.009262502 -0.07504146 -0.055375457
0.055619642 0.08030686 0.050524354 -0.0873795 0.0817043 -0.050933458 -0.0058873817 -0.032969583
0.041344687 0.008192703 -0.08178099 0.032341264 0.049956262 0.08543089 -0.031137511 -0.06377216
0.084565595 0.06722228 0.070972145 0.06063834 -0.022762164 0.0397598 -0.030083157 -0.030651439
-0.047070943 -0.009022884 -0.0043735877 0.018430956 0.054119974 -0.014299922 -0.045541085 -0.085529245
0.063050196 0.06485842 -0.004720032 0.05836062 -0.06618545 -0.01923313 -0.0019395277 0.08000916
00000000: 005e c33b 242f a63d 721d 043d 0c8b 8bbd
00000010: 035c 53bd 2338 06bd 0056 2cbb b6b1 b03d
00000020: 06e7 873d 8645 76bd 8477 373d d635 b03d
00000030: ec25 5d3d 080c a6bc 3cc5 d3bc 304c 213d
00000040: b861 28bd 5071 ad3c dea5 62bd 436b a7bd
00000050: c85a f9bc c010 363b 36b6 4dbd b965 07bd
00000060: 9c0b 89bd 14f4 83bd e04c 8fbd c805 f53c
00000070: 7085 ab3d d0b0 6e3d 0032 d6b9 7ce3 963d
00000080: f241 fabc 46f8 a6bd a825 d8bc 89bf 34bd
00000090: 00b9 3d3d 90bb 63bd 2186 09bd ea8a b33d
000000a0: 4d15 0bbd bdae 52bd ba3d ae3d 4225 87bd
000000b0: 94b5 6e3d 846c 503d 340f 353d 9b47 5cbd
000000c0: 1432 543d e23e a43d 0e29 a23d 8070 003a
000000d0: 0815 3d3d 788e 573d b1c0 0abd bacd 55bd
000000e0: 7f36 06bd 2029 f1bb 4ce3 a4bd deb8 15bd
000000f0: 06b9 1bbd 1999 66bd 02de 13bd 9ca9 c73c
00000100: 909e b0bc 68a1 243d c491 30bd 384a 1d3d
00000110: acce 99bd 1087 0b3c 00b7 863c 08c3 c5bc
00000120: bcf2 c7bc 3735 a1bd 549f a33d 7474 aabc
00000130: a0f0 3d3d be7d a23d 8306 54bd 4b3b 0bbd
00000140: a608 a23d 07ef 90bd 806f 2c3d b4a0 393d
00000150: 806b cebb 50a7 6c3d 8854 483d 206f db3c
00000160: 586e a73d de16 84bd 14fa 36bd 58de d93c
00000170: 863e e7bc 1619 0abd 0768 a9bd c48b b5bc
00000180: 6c7d 673d d4fe b0bc bf4b aabd 0047 2b3d
00000190: 1e91 f5bc c05d 7f3d 1a0e 903d f71e 93bd
000001a0: 5cee ab3c 0280 053d 9dde 1ebd 88ba 93bd
000001b0: 6077 72bb 7032 9ebc a077 9e3d ab2f 18bd
000001c0: e876 563d 5876 893d 5802 2d3d 406e 4e3c
000001d0: e8de 613c fcd5 a9bc dff0 95bd 8e7d d7bc
000001e0: b829 983d 7819 e6bc 5439 9f3c 8440 233d
000001f0: 8f12 94bd 8fb0 85bd c821 9d3c 36cf 81bd
00000200: 606c 5f3d de16 073d 2819 803d ccb9 8bbd
00000210: 5848 213d 84cb 043d 06b2 87bd a4fe e03c
00000220: 9ccb 96bc 9724 a8bd 3828 a33d c0ed f63b
00000230: 8e16 883d 88cd 993d 4cd5 913d 0c9c 65bd
00000240: 7035 f53c 1ce3 5c3d 9061 d23c f858 a3bc
00000250: 30b5 633c 7841 863d b4a6 7e3d ccff 963c
00000260: 4c5d d0bc 2b66 24bd f0a7 0f3d 2652 e3bc
00000270: b8e3 233d 4481 c03c 6cd2 963d 5027 70bd
00000280: b085 9abc c015 33bd 2c83 943d 1262 9d3d
00000290: 0c1d 1c3d 16ed 9fbd 9c88 e83c 604b b43d
000002a0: 9876 363c 5c36 3b3d 60ce 2cbd 48db a8bc
000002b0: e0c8 f2bc 004d 9fba 40ab 323b b81f 51bd
000002c0: 6684 a43d 0075 70ba 000c 7b3a 5441 cebc
000002d0: c0f5 553b 3439 a13d 7825 b13c 3010 8a3b
000002e0: 404c 8dbd 65ef a0bd 4005 95ba b43d 263d
000002f0: 1a40 9b3d 9807 4bbd 7c1c e83c b016 b13c
00000300: 9cb5 643d b04f 49bc 1808 1e3c 0e82 fdbc
00000310: c2e7 b33d c6be 2dbd b0d4 c1bb f15e 1bbd
00000320: f8eb 773c 06e6 9e3d 0c95 31bd d00e bdbb
00000330: e09d 613d 4a4e b43d 3adc 823d 301c 823b
00000340: cc4a 9e3d 5029 173d 3efe b0bd 1096 95bc
00000350: 6c10 143d c0c1 173c 56af 99bd 60d1 62bd
00000360: 6cd1 633d ec77 a43d a0f2 4e3d 06f4 b2bd
00000370: 9654 a73d 9a9f 50bd f0ea c0bb 1d0b 07bd
00000380: 0c59 293d b03a 063c cb7c a7bd 4678 043d
00000390: f09e 4c3d 64f6 ae3d 1814 ffbc fa9a 82bd
000003a0: ba30 ad3d d6ab 893d d859 913d e85f 783d
000003b0: b877 babc 2cdb 223d f470 f6bc ba18 fbbc
000003c0: 76cd 40bd b8d4 13bc 5050 8fbb 84fc 963c
000003d0: e8ac 5d3d 384a 6abc 4a89 3abd f529 afbd
000003e0: 7620 813d 7ed4 843d 80aa 9abb 8c0b 6f3d
000003f0: 3d8c 87bd cc8e 9dbc c037 feba d8db a33d

bias f4 [128]
0.06573123 0.03739786 -0.0010597706 0.0228538 -0.021638028 0.049757868 -0.06300637 -0.027010366
-0.07694019 0.022788748 0.08121166 0.04959227 0.053613484 0.05324498 0.021345839 -0.07261491
0.080121264 0.044103324 -0.0012445375 -0.061812956 -0.00092975795 -0.04185595 0.020842023 0.02024328
-0.06569965 0.009416349 0.015938029 0.02945719 -0.07171364 -0.07791491 0.06654039 -0.0777165
0.0427334 -0.041874487 0.0077487677 0.058238506 -0.013936147 -0.052873187 0.040136576 0.070974484
0.049028248 -0.072904855 -0.032718293 -0.07471323 -0.0052811503 -0.08305477 -0.07368281 -0.052330438
0.0060571134 -0.005308382 0.0402316 -0.07316632 -0.078934126 0.03507571 -0.07412278 -0.042755775
-0.05945963 -0.02701062 0.043440744 -0.060309045 0.03543409 -0.029534195 -0.01929073 0.059686616
-0.08072954 -0.06538466 -0.024596669 -0.03349282 -0.037792664 -0.08422355 0.023755617 0.074273065
-0.03238568 -0.04138658 -0.052097168 -0.02895426 -0.058973372 -0.07694384 -0.0079530105 -0.009680472
0.07829146 -0.03231853 -0.06245131 -0.019187644 -0.01989673 -0.03707708 -0.06082944 0.011620626
-0.021782927 0.061934263 -0.008078352 0.079680964 -0.020907022 -0.051249087 0.005715303 -0.07842222
-0.017778248 0.010236107 -0.020733953 -0.07561087 0.031482153 -5.490333e-05 0.060454905 0.08745575
-0.0017989352 0.07168649 -0.08275888 0.0691077 0.057401553 0.08457382 -0.07670897 -0.06250791
-0.06180334 0.04343103 -0.06074081 -0.069848835 0.05198145 0.03278047 -0.0017927513 0.00020851195
0.050802007 0.023599409 -0.037673652 0.03217181 0.04107122 -0.08198322 -0.07359042 -0.043570984
00000000: 189e 863d 802e 193d 00e8 8aba e437 bb3c
00000010: 3c42 b1bc e8ce 4b3d 7c09 81bd d844 ddbc
00000020: d192 9dbd 78af ba3c 4c52 a63d 4421 4b3d
00000030: d099 5b3d 6817 5a3d 78dd ae3c 20b7 94bd
00000040: 9e16 a43d b0a5 343d c01f a3ba 952f 7dbd
00000050: 00bb 73ba 2571 2bbd e4bc aa3c 3cd5 a53c
00000060: 8a8d 86bd 0847 1a3c 7890 823c 3450 f13c
00000070: 9ade 92bd da91 9fbd 5446 883d d429 9fbd
00000080: 3809 2f3d 9584 2bbd 60e9 fd3b 808b 6e3d
00000090: 7054 64bc 8e91 58bd 4066 243d 125b 913d
000000a0: d8d1 483d 244f 95bd 9e03 06bd 4003 99bd
000000b0: 800d adbb 9f18 aabd 03e7 96bd 7158 56bd
000000c0: c07a c63b f0f1 adbb e4c9 243d 39d8 95bd
000000d0: 37a8 a1bd 8cab 0f3d afcd 97bd ae20 2fbd
000000e0: f18b 73bd 6045 ddbc ecee 313d 9e06 77bd
000000f0: 5623 113d b2f1 f1bc 9807 9ebc f479 743d
00000100: 8755 a5bd 65e8 85bd f47e c9bc c42f 09bd
00000110: 7bcc 1abd 667d acbd 249b c23c 7a1c 983d
00000120: d9a6 04bd f984 29bd d763 55bd 7c31 edbc
00000130: 108e 71bd bb94 9dbd 584d 02bc d89a 1ebc
00000140: 4657 a03d 6f60 04bd f2cc 7fbd 682f 9dbc
00000150: 78fe a2bc 23de 17bd 4a28 79bd 7064 3e3c
00000160: 1c72 b2bc c8ae 7d3d 105b 04bc c62f a33d
00000170: 3445 abbc 90ea 51bd 7047 bb3b d49b a0bd
00000180: b0a3 91bc 58b5 273c 40da a9bc dfd9 9abd
00000190: 6ef3 003d 0048 66b8 909f 773d 001c b33d
000001a0: 40ca ebba 5ed0 923d 7d7d a9bd 5688 8d3d
000001b0: e41d 6b3d 0a35 ad3d 9819 9dbd 2604 80bd
000001c0: 8025 7dbd bce4 313d 5bcb 78bd e80c 8fbd
000001d0: 80ea 543d d044 063d c0fa eaba 00a4 5a39
000001e0: c415 503d 8c53 c13c b04f 1abd 96c6 033d
000001f0: 4c3a 283d d2e6 a7bd 93b6 96bd 7d77 32bd
