text_transform_layer.pth (torch, 68134 bytes, 2 tensors)

weight f4 [128, 129]
-0.07261354 -0.050188016 0.043825552 0.075323746 0.06990087 0.08705683 0.058561355 -0.038833227
0.04348311 -0.045155995 0.024015404 -0.056588475 0.05781816 -0.018901467 -0.0067965537 -0.057953905
-0.04899609 -0.009810068 0.050015017 0.04217048 -0.060176387 -0.049706195 -0.02174773 0.019844942
-0.045794394 -0.008460566 0.061045825 -0.08796312 0.062990084 0.019377567 0.050137743 0.038273036
-0.04537775 0.047027454 -0.056700423 -0.0008775145 0.028852962 -0.06831791 -0.06945976 0.07393418
0.048120633 -0.008584894 -0.0034362823 0.035126187 0.047489822 0.020803861 0.044759333 0.063849
-0.057173237 -0.014738075 -0.033041026 -0.010492243 -0.017666169 -0.034875073 0.05835758 0.07684071
-0.05776832 -0.0260612 -0.0870159 0.037471816 -0.05397854 -0.062442474 -0.016163006 0.03093867
-0.07368559 -0.041079767 -0.0013924837 -0.004965611 -0.05985587 0.07243018 -0.03683044 0.050002694
0.038100615 0.0063770935 -0.014940992 0.05295384 -0.007224746 0.013437919 0.085886106 -0.055361718
0.035811625 -0.07285187 -0.07352524 0.08276485 -0.042204317 0.013345093 -0.08054167 0.029388443
0.0859787 -0.04758383 0.07461527 0.08126269 0.033100612 0.0029485598 0.05881025 0.04115343
0.026602343 -0.06827041 0.019818336 0.06781906 -0.0274457 0.018073492 -0.052016016 -0.022780962
0.07011026 -0.073018126 0.061785758 0.08199859 -0.087110564 0.05132687 -0.031391792 -0.059623636
0.049906522 -0.085926585 0.042531952 -0.07468948 -0.042877465 0.01628486 -0.0045444965 0.01835981
0.05529934 0.03348983 -0.030060012 -0.08321481 0.0031604692 0.028975002 -0.05093205 0.014899395
-0.021687299 0.030267157 -0.04471065 -0.042163666 0.08219065 0.086619005 0.08749792 -0.028762598
0.08236937 0.039338306 -0.08252762 -0.067016944 0.0102894455 -0.052193668 0.07769793 0.07997568
0.079382226 0.07859136 0.05077851 -0.00868991 0.01625938 -0.064961486 -0.08774172 0.0025864765
-0.070931636 -0.003941089 -0.021984644 -0.06882125 -0.0056234077 -0.07337684 0.036957487 -0.08232471
-0.057325218 -0.0047810823 -0.07185402 -0.052352753 -0.0051971376 0.020697154 0.01655057 -0.0109978095
-0.05185781 -0.024361566 0.016267188 -0.014478557 -0.013887122 -0.028075583 -0.038535103 0.021148972
0.07955259 0.0002757907 0.038443282 -0.02507791 0.05474353 -0.0177271 -0.047702592 -0.08526102
-0.0057095736 0.03610173 0.0386924 0.012309127 0.060448006 -0.055380367 -0.08268607 -0.051590107
-0.02602861 0.0438004 -0.068163045 0.018824078 -0.003962055 0.044942036 0.024171121 0.059302464
-0.00396277 0.01649461 -0.041235723 0.045078874 -0.016009986 -0.02118636 0.021614917 -0.015379548
-0.005904384 -0.08711887 -0.06575838 0.040276587 0.021780618 0.035525694 0.029240325 0.077466995
-0.061158724 0.08000915 0.019836657 -0.033916987 -0.0060318187 0.08198665 -0.022623837 -0.0846615
-0.08664799 -0.05746352 0.030117027 0.058033824 0.034490034 -0.036823735 -0.04753849 -0.07779452
0.010177106 0.000612475 0.0059058666 0.03162717 0.0486805 -0.0042750314 0.06807481 0.018023796
0.077800065 -0.08480995 0.013085596 0.08379044 -0.056526024 0.03593743 -0.013570584 -0.021620154
0.045871258 -0.061887696 0.08073264 -0.010903753 0.0639496 -0.0063538626 -0.038263883 -0.015533619
00000000: 68b6 94bd f391 4dbd 6c82 333d 5643 9a3d
00000010: 3028 8f3d da4a b23d 08de 6f3d 970f 1fbd
00000020: 581b 323d 7ef5 38bd f4bb c43c 51c9 67bd
00000030: bcd2 6c3d 40d7 9abc a0b5 debb 1361 6dbd
00000040: 20b0 48bd 68ba 20bc 8cdc 4c3d f4ba 2c3d
00000050: 847b 76bd b998 4bbd 4c28 b2bc dc91 a23c
00000060: e792 3bbd 309e 0abc 300b 7a3d 0226 b4bd
00000070: f200 813d b4bd 9e3c 3c5d 4d3d 30c4 1c3d
00000080: 05de 39bd dc9f 403d b43e 68bd 0009 66ba
00000090: 0c5d ec3c 43ea 8bbd eb40 8ebd ce6a 973d
000000a0: 241a 453d a8a7 0cbc 4033 61bb 7ae0 0f3d
000000b0: b084 423d dc6c aa3c 9055 373d 44c3 823d
000000c0: 7c2e 6abd f877 71bc 0756 07bd a8e7 2bbc
000000d0: a4b8 90bc 2ad9 0ebd 5c08 6f3d aa5e 9d3d
000000e0: 799e 6cbd 4c7e d5bc 6435 b2bd 0c7c 193d
000000f0: 9a18 5dbd aec3 7fbd 4868 84bc 1873 fd3c
00000100: 78e8 96bd 4243 28bd 0084 b6ba 90b6 a2bb
00000110: 6e2b 75bd 4656 943d 84db 16bd a0cf 4c3d
00000120: 640f 1c3d f0f6 d03b 10cb 74bc 20e6 583d
00000130: 90bd ecbb b82a 5c3c 0ee5 af3d f8c2 62bd
00000140: 36af 123d 5c33 95bd 6794 96bd 9e80 a93d
00000150: 6fde 2cbd 60a5 5a3c 08f3 a4bd 08c0 f03c
00000160: 9a15 b03d 43e7 42bd e4cf 983d 0e6d a63d
00000170: 8294 073d a03c 413b 04e3 703d 8090 283d
00000180: 28ed d93c 5bd1 8bbd 105a a23c b8e4 8a3d
00000190: ced5 e0bc dc0e 943c bf0e 55bd 249f babc
000001a0: f895 8f3d 878a 95bd 1013 7d3d e0ee a73d
000001b0: 0667 b2bd 203c 523d ae94 00bd ea37 74bd
000001c0: c86a 4c3d 47fa afbd fc35 2e3d ccf6 98bd
000001d0: 48a0 2fbd d467 853c 00ea 94bb 5067 963c
000001e0: 9081 623d a22c 093d 6a40 f6bc 876c aabd
000001f0: e01f 4f3b fc5c ed3c 209e 50bd 981c 743c
00000200: 90a9 b1bc d4f2 f73c 8422 37bd cfb3 2cbd
00000210: 9253 a83d 4e65 b13d 1c32 b33d 8a9f ebbc
00000220: 46b1 a83d 3421 213d 3e04 a9bd 2e40 89bd
00000230: 1095 283c 07c9 55bd 1820 9f3d 4aca a33d
00000240: 2693 a23d 82f4 a03d 20fd 4f3d 2060 0ebc
00000250: 6432 853c 870a 85bd eeb1 b3bd e081 293b
00000260: 9b44 91bd 4024 81bb 2419 b4bc 28f2 8cbd
00000270: 9044 b8bb 9946 96bd bc60 173d dc99 a8bd
00000280: d9cd 6abd a0aa 9cbb 3328 93bd d76f 56bd
00000290: c04c aabb 148d a93c 1095 873c 2830 34bc
000002a0: db68 54bd e891 c7bc c442 853c 7837 6dbc
000002b0: d086 63bc c4fe e5bc fcd6 1dbd 9c40 ad3c
000002c0: 78ec a23d 0098 9039 b476 1d3d 3070 cdbc
000002d0: c03a 603d 6c38 91bc cb63 43bd 549d aebd
000002e0: 6017 bbbb 68df 133d ec7b 1e3d 38ac 493c
000002f0: 5498 773d 86d6 62bd 5057 a9bd 2650 53bd
00000300: f439 d5bc 0c68 333d 1199 8bbd f434 9a3c
00000310: 20d4 81bb 2415 383d 8402 c63c 24e7 723d
00000320: 20da 81bb b41f 873c cae6 28bd a0a4 383d
00000330: 6027 83bc 048f adbc c411 b13c 80fa 7bbc
00000340: 9079 c1bb 616b b2bd 54ac 86bd 10f9 243d
00000350: 446d b23c 6483 113d 6889 ef3c 04a7 9e3d
00000360: 9281 7abd d6db a33d 7c80 a23c 8aec 0abd
00000370: 90a6 c5bb 9ee8 a73d a055 b9bc 0263 adbd
00000380: 8074 b1bd de5e 6bbd fcb7 f63c e0b4 6d3d
00000390: 6c45 0d3d 7cd4 16bd b8b7 42bd bc52 9fbd
000003a0: e0bd 263c 808e 203a 0086 c13b 7e8b 013d
000003b0: 3465 473d 9015 8cbb ce6a 8b3d a4a6 933c
000003c0: a455 9f3d d7b0 adbd f864 563c 529a ab3d
000003d0: d587 67bd 2033 133d 2857 5ebc c01c b1bc
000003e0: 80e3 3b3d f47d 7dbd 2857 a53d a8a5 32bc
000003f0: 02f8 823d 1034 d0bb 97ba 1cbd b880 7ebc

bias f4 [128]
0.055697113 -0.041138366 0.010963604 -0.051087357 -0.01392547 -0.055412088 0.048717707 -0.031964958
0.06877124 -0.02421055 -0.063441284 -0.07467787 -0.054098412 0.043279335 0.03341739 0.050652042
0.081196606 -0.03690495 -0.04937437 -0.06207195 0.0139185265 0.0013098717 0.024481475 0.07393339
0.061978713 -0.05577654 0.014640845 0.019804321 0.024525076 0.004961543 -0.032397047 -0.034483865
-0.052731913 -0.016283773 0.03580396 -0.018207408 -0.07040669 0.01494047 0.006961219 0.07301675
-0.024075575 0.017004132 0.04800321 -0.08722748 0.073569655 -0.0038288012 0.057902798 -0.010799229
-0.08049579 -0.034157634 0.043939307 0.0026866272 0.04899846 -0.005603589 0.00017541647 -0.010453917
0.0017218739 -0.021437898 0.0005287081 -0.06449037 0.04663548 -0.073677056 -0.013887458 0.074383914
-0.05169832 -0.06505953 -0.031408627 -0.0322732 0.028529167 -0.07609382 0.027743861 0.035055064
-0.075859286 -0.034361187 0.06969212 -0.0536464 0.07902041 -0.03417449 0.032956526 0.03970115
0.005615331 -0.028354961 -0.035919342 -0.04779403 -0.07028715 0.06748508 -0.06467668 -0.026098419
0.036073104 -0.031039711 0.08509745 0.07592504 0.021525882 -0.04533726 -0.028550688 0.07717882
-0.05509997 0.08470778 -0.07103185 0.060011685 -0.014737122 0.010419615 0.05065821 -0.067923315
0.07824153 -0.050893784 -0.06189458 0.038465247 -0.05950071 -0.034138564 -0.081294015 0.009633534
-0.08375051 -0.0050307363 -0.011404909 -0.07729844 -0.022790805 0.068149686 -0.029274803 0.043625116
0.085991025 0.019274496 -0.033217926 -0.02323632 0.08495417 0.01566346 -0.021978833 0.035520636
00000000: a822 643d b480 28bd b0a0 333c fa40 51bd
00000010: a827 64bc c9f7 62bd 388c 473d b0ed 02bd
00000020: f0d7 8c3d 3455 c6bc 81ed 81bd b6f0 98bd
00000030: 4c96 5dbd ac45 313d ace0 083d 8478 4f3d
00000040: 684a a63d a529 17bd c83c 4abd 283f 7ebd
00000050: 880a 643c 00b0 ab3a 608d c83c 646a 973d
00000060: 64dd 7d3d f175 64bd 28e0 6f3c ac3c a23c
00000070: d0e8 c83c 7094 a23b c4b2 04bd f43e 0dbd
00000080: 6bfd 57bd 8c65 85bc 2ca7 123d b427 95bc
00000090: 6231 90bd e0c8 743c f01a e43b ce89 953d
000000a0: 243a c5bc 404c 8b3c 049f 443d 52a4 b2bd
000000b0: b0ab 963d a0ec 7abb 7c2b 6d3d 40ef 30bc
000000c0: fada a4bd e0e8 0bbd b4f9 333d 2012 303b
000000d0: 9cb2 483d 509e b7bb 00f0 3739 e846 2bbc
000000e0: 80b0 e13a 889e afbc 0099 0a3a 8713 84bd
000000f0: d804 3f3d ffe3 96bd 3888 63bc 9856 983d
00000100: 9ec1 53bd ee3d 85bd 55a6 00bd e730 04bd
00000110: 00b6 e93c 14d7 9bbd 1847 e33c e695 0f3d
00000120: 1d5c 9bbd 51be 0cbd beba 8e3d 54bc 5bbd
00000130: 74d5 a13d 8dfa 0bbd 6cfd 063d ac9d 223d
00000140: d000 b83b aa48 e8bc 2920 13bd acc3 43bd
00000150: b6f2 8fbd 9e35 8a3d 3575 84bd 5acc d5bc
00000160: 64c1 133d fe46 febc 9247 ae3d 967e 9b3d
00000170: 0c57 b03c 90b3 39bd 22e3 e9bc ee0f 9e3d
00000180: 82b0 61bd 467b ad3d 2679 91bd d0ce 753d
00000190: f873 71bc 08b7 2a3c fc7e 4f3d 611b 8bbd
000001a0: 183d a03d 0076 50bd 2c85 7dbd bc8d 1d3d
000001b0: 04b7 73bd e1d4 0bbd 7a7d a6bd f8d5 1d3c
000001c0: 6385 abbd e0d8 a4bb a8db 3abc a54e 9ebd
000001d0: c8b3 babc 1092 8b3d b6d1 efbc 40b0 323d
000001e0: 101c b03d 8ce5 9d3c 850f 08bd 185a bebc
000001f0: 74fc ad3d a850 803c f40c b4bc 167e 113d
