transform_layer.pth (torch, 68104 bytes, 2 tensors)

weight f4 [128, 129]
0	0x3d9be12e	0.07611309
1	0xbd3830b9	-0.04496834
2	0xbd85074c	-0.064955324
3	0x3cee0600	0.029055595
4	0xbce44686	-0.02786566
5	0x3da1fea8	0.079099
6	0xbd991c3c	-0.074760884
7	0xbd402361	-0.04690874
8	0xbc093a90	-0.008375779
9	0xbd613805	-0.054985065
10	0x3cf37204	0.029717453
11	0x3ce0563c	0.02738487
12	0x3d856824	0.06514004
13	0x3cf153b4	0.029458858
14	0xbd9a9c7d	-0.07549379
15	0x3d5d08ac	0.05396335
16	0x3d4c4690	0.04987198
17	0xbd33c667	-0.043890383
18	0x3c076210	0.008263126
19	0x3c906b9c	0.017629437
20	0x3da39e28	0.0798915
21	0x3c81a220	0.015824378
22	0xbd77e6ea	-0.06052295
23	0xbd5f6583	-0.05454017
24	0xbd91e771	-0.07124222
25	0xbc8ef2c8	-0.017449751
26	0x3d2b6c78	0.04185149
27	0xbd899d61	-0.06719471
28	0xbc0d3860	-0.008619398
29	0x3d4da68c	0.05020766
30	0xbdab3438	-0.08359569
31	0x3d926dee	0.07149874
32	0x3c2f5768	0.010701992
33	0xbd7d7f87	-0.061889198
34	0x3d0759d4	0.03304465
35	0xbd1ecb4c	-0.038768098
36	0xbdb26396	-0.08710401
37	0x3d0283e6	0.03186407
38	0xbd9034d7	-0.070413284
39	0xbd48de46	-0.0490401
40	0xbd6460c8	-0.05575636
41	0x3d08e1b4	0.033418372
42	0x3d9caa8c	0.07649717
43	0x3d9e1ba4	0.07720116
44	0x3d4fc0e8	0.05072108
45	0x3cdd8a98	0.027043626
46	0xbdb02917	-0.08601587
47	0xbd896e99	-0.06710548
48	0xbd9a11c3	-0.07522919
49	0x3d1ace88	0.03779462
50	0xbcd1fcd6	-0.025633257
51	0xbd46f4a7	-0.048573162
52	0x3d687a2c	0.056757137
53	0xbcfa3c32	-0.030546281
54	0xbc577e60	-0.013152689
55	0x3cd6c470	0.026216716
56	0x3d264cd4	0.040600613
57	0xbd87ae19	-0.06625003
58	0xbc124928	-0.008928575
59	0x3c9f90d8	0.019478247
60	0x3c558658	0.013032518
61	0x3d3db68c	0.04631667
62	0x3a5f3f00	0.00085161626
63	0x3c037988	0.008024581
64	0xbce30fd0	-0.0277175
65	0x3d756858	0.059913963
66	0xbceae9fe	-0.02867603
67	0xbd879935	-0.06621019
68	0xbbccd680	-0.0062511563
69	0x3c12b808	0.008955009
70	0x3d47de64	0.048796073
71	0x3d366b1c	0.04453574
72	0x3c856564	0.016283698
73	0x3c9428fc	0.01808595
74	0xb6f50000	-7.301569e-06
75	0x3db43bfa	0.08800502
76	0xbd8d9d32	-0.06914748
77	0x3d9188ca	0.071061686
78	0xbd77ff80	-0.0605464
79	0xbcf85bde	-0.030317243
80	0x3da92e7a	0.08260818
81	0x3daaa2d0	0.08331835
82	0xbcb92518	-0.022600695
83	0x3b4a7660	0.003089331
84	0xbb941ea0	-0.0045202523
85	0x3d08e59a	0.03342209
86	0x3ced9678	0.029002413
87	0x3d1fec80	0.039043903
88	0x3c9bae28	0.019003943
89	0x3db13cd4	0.0865418
90	0x3b4a1a20	0.0030838326
91	0x3da564d8	0.08075875
92	0xbd96287a	-0.07331939
93	0xbb8697c0	-0.0041074455
94	0xbdb21158	-0.08694714
95	0x3cd4ec78	0.025991663
96	0xbcdbc628	-0.026827887
97	0xbd80bc4d	-0.062859155
98	0xbcc2ce2c	-0.023779951
99	0x3d40b19c	0.04704438
100	0x3ccbd334	0.024880983
101	0xbd63b6e0	-0.055594325
102	0x3d3c233c	0.04593204
103	0xbd788716	-0.060675703
104	0xbcfc804e	-0.0308229
105	0x3ce89a58	0.02839391
106	0x3da7a2ac	0.08185324
107	0xbba1ad20	-0.004933968
108	0xbc7acb88	-0.015307315
109	0xbd9b9133	-0.07596054
110	0x3d9a5898	0.07536429
111	0x3bf4c490	0.007469721
112	0xbd3000ec	-0.04296963
113	0xbbf2c880	-0.0074091554
114	0xbc9811b0	-0.018563122
115	0x3c7d2378	0.015450351
116	0x3d8e2340	0.06940317
117	0xbd84b707	-0.06480222
118	0xbccc8c1c	-0.024969153
119	0xbc91f544	-0.017817147
120	0xbd7a19fe	-0.061059944
121	0x3cd76830	0.026294798
122	0xbd567845	-0.05236079
123	0x3c498458	0.01229962
124	0xbcaa7fa8	-0.020812824
125	0x3ce68f78	0.028144583
126	0xbd2fbe37	-0.042906012
127	0x3bbd42a0	0.0057757646
128	0xbd9a4a93	-0.07533755
129	0x3d595760	0.053061843
130	0xbca97aa0	-0.020688355
131	0x3d7f0020	0.06225598
132	0xbd48a891	-0.048988882
133	0xbd20080a	-0.039070167
134	0x3cbe7b40	0.02325213
135	0xbcb01338	-0.02149354
136	0xbcc68204	-0.024231918
137	0xbd6c30ae	-0.057663612
138	0x3db03e18	0.086055934
139	0x3d902496	0.07038228
140	0xbdafb42c	-0.08579287
141	0x3db0120a	0.08597191
142	0x3c173eb8	0.009231262
143	0xbd29f6c6	-0.041495107
144	0xbce0e130	-0.027451128
145	0xbcd45aea	-0.025922257
146	0xbd9d640b	-0.07685097
147	0xbd846b4f	-0.0646578
148	0x3c4e1940	0.012579262
149	0x3cacdf94	0.021102704
150	0xbdb05e8a	-0.08611782
151	0x3bcf3e10	0.006324537
152	0xbd0af11b	-0.033921342
153	0x3d2cd4d8	0.04219517
154	0xbd0d4615	-0.034490664
155	0x3d8b1086	0.06790261
156	0x3a8d21c0	0.0010767505
157	0x3d98a976	0.07454197
158	0x3d939382	0.07205869
159	0x3b5345a0	0.0032237545
160	0xbcdbbb10	-0.026822597
161	0xbd7b18d2	-0.061302967
162	0xbd9f82d7	-0.077886276
163	0xbd075b04	-0.033045784
164	0x3d0bdaae	0.034144096
165	0x3c9559c8	0.018231288
166	0x3d81a4c4	0.06330255
167	0xbcb127fc	-0.021625511
168	0x3db3ad04	0.087732345
169	0xbb454440	-0.0030100495
170	0xbd80be54	-0.06286302
171	0xbd74ad78	-0.059735745
172	0x3d1858a0	0.037193894
173	0xbd3d1f9f	-0.046172734
174	0x3d0e904a	0.034805574
175	0xbdb3102c	-0.08743319
176	0xbd8346e8	-0.06410009
177	0x3d753bd8	0.059871525
178	0xbd96c839	-0.07362408
179	0x3bccee90	0.006254025
180	0x3da68e18	0.08132571
181	0xbd9870a3	-0.07443359
182	0xbd78cbe5	-0.060741324
183	0xbb7ef400	-0.003890276
184	0x3db37fea	0.08764632
185	0xbdaaca6c	-0.0833939
186	0x3d51c1ac	0.05121009
187	0x3d116946	0.035500787
188	0xbdb340ee	-0.08752619
189	0xbd02d4f8	-0.031941384
190	0xbdaf6827	-0.08564787
191	0xbcdb62fa	-0.026780594
192	0x3da6cf4c	0.081450075
193	0x3d9ce602	0.07661058
194	0x3d99f21c	0.07516882
195	0x3b2a26e0	0.0025963113
196	0xbd2a7269	-0.041613016
197	0x3d59aca8	0.053143173
198	0x3d43659c	0.047704324
199	0x3d8214aa	0.063515976
200	0x3d0de3ce	0.03464108
201	0x3d1ffbcc	0.03905849
202	0xbdb12ae5	-0.086507596
203	0x3d1aa228	0.0377523
204	0xbd8279d2	-0.06370892
205	0xbd9d8ce2	-0.07692887
206	0xbd55d4bc	-0.052204832
207	0xbd366d79	-0.044537995
208	0xbbf8b2d0	-0.0075896755
209	0x3c818810	0.01581195
210	0x3ce717f8	0.028209671
211	0x3d93988c	0.072068304
212	0x3c8ce1ac	0.017197452
213	0x3d6341e8	0.055482775
214	0x3d6335d4	0.055471256
215	0xbd6f8b05	-0.05848219
216	0xbd010b71	-0.031505052
217	0xbcb5e088	-0.022201791
218	0xbdaa6b27	-0.08321219
219	0x3c5021d0	0.012703374
220	0xbda0c472	-0.07849969
221	0x3d0c3674	0.034231618
222	0xbd3aeb6b	-0.04563467
223	0xbd0b5764	-0.03401889
224	0xbd943c9c	-0.07238123
225	0x3d630fa0	0.055434823
226	0xbdb031e0	-0.08603263
227	0x3c2eaed0	0.010661796
228	0x3d3815d0	0.044942677
229	0xbd208daf	-0.03919762
230	0xbd323bea	-0.04351417
231	0x3d548f14	0.051894262
232	0xbd393c16	-0.045223318
233	0xbd12d50c	-0.03584771
234	0x3d9c44c2	0.07630302
235	0x3d84ff98	0.06494063
236	0xbc714df8	-0.014728062
237	0xbcf041a8	-0.029328182
238	0x3d3f1fb0	0.04666108
239	0xb6870000	-4.0233135e-06
240	0x3cc65bac	0.024213634
241	0x3c6d0f28	0.014468946
242	0xbca1fabc	-0.01977288
243	0x3bca1190	0.0061666444
244	0x3cec4788	0.028842703
245	0xbb45a180	-0.0030156076
246	0xbd8a524c	-0.06753978
247	0x3cf44d98	0.029822156
248	0x3d7e820c	0.06213574
249	0x3d2f32b8	0.04277298
250	0x3cb15ad4	0.021649756
251	0xbd494739	-0.04914019
252	0xbcc53d70	-0.024077147
253	0xbd5c5304	-0.053790107
254	0xbdb1af97	-0.08676069
255	0xbd1002d3	-0.035158943

bias f4 [128]
0	0xbd3962b4	-0.045260146
1	0x3d94caaa	0.072652176
2	0x3d2fb248	0.04289463
3	0xbcdc9440	-0.02692616
4	0xbd20f355	-0.03929456
5	0xbd5dd5ff	-0.05415916
6	0x3d3f2e4c	0.04667501
7	0xbcd7a450	-0.026323467
8	0x3da8fd20	0.08251405
9	0x3db33c88	0.0875178
10	0x3d213d50	0.039365113
11	0xbd6cb8d2	-0.057793446
12	0xbc0f3170	-0.008739814
13	0x3da78a2a	0.081806496
14	0x3d6ea5b4	0.058263496
15	0x3d3b8150	0.04577762
16	0xbcb7d028	-0.022438124
17	0x3c4ffc20	0.012694389
18	0xbd1f3383	-0.038867485
19	0xbcded068	-0.027198985
20	0x3c118700	0.008882284
21	0xbd399e3e	-0.045316927
22	0x3daf31d4	0.08554426
23	0x3c3ce460	0.011529058
24	0xba54e280	-0.00081209093
25	0xbd8461ce	-0.06463967
26	0x3caab4fc	0.020838253
27	0x3db35228	0.087559044
28	0x3dad9070	0.08474815
29	0x3d0b0794	0.033942774
30	0x3d93a16e	0.07208525
31	0x3d99b168	0.07504541
32	0x3b1bf4a0	0.002379693
33	0x3d3550f0	0.04426664
34	0xbd7d0e99	-0.0617815
35	0xbda87333	-0.082250975
36	0xbdaec89d	-0.08534358
37	0x3cf90d64	0.030401893
38	0xba5e6000	-0.0008482933
39	0x3c00b098	0.007854603
40	0xbd9b8e85	-0.07595543
41	0xbd70db33	-0.058802795
42	0xbdae9db1	-0.08526171
43	0x3db16cbe	0.08663319
44	0x3d820bf4	0.06349936
45	0xbd35baf9	-0.044367764
46	0x3d4c0f44	0.049819246
47	0xbc6efe90	-0.01458706
48	0xbcdaf8d0	-0.026729971
49	0x3d439dcc	0.04775791
50	0xbc29ecb0	-0.010371372
51	0x3cc376bc	0.023860328
52	0x3db2b4da	0.08725901
53	0xbd9ccf4e	-0.07656728
54	0x3d6b5afc	0.057459816
55	0xbd15c9b5	-0.036569316
56	0xbcebdca4	-0.028791733
57	0x3d1105b2	0.035405822
58	0xbc8413a0	-0.01612264
59	0xbd333cd8	-0.043759197
60	0x3d66ce28	0.05634895
61	0xbd2805b7	-0.041021075
62	0x3cf16cfc	0.029470913
63	0x3d2303ac	0.039798424
64	0x3d5bd0c0	0.053665876
65	0xbda1b2a4	-0.07895401
66	0x3db2d5a2	0.087321535
67	0x3d8cb5b4	0.068705946
68	0x3b8ca9f0	0.004292719
69	0x3d3f1f44	0.046660677
70	0xbce7edbc	-0.028311603
71	0x3c357a90	0.011076584
72	0xbd0b06c6	-0.033942007
73	0xbd9a38a8	-0.075303376
74	0x3d130da0	0.035901666
75	0xbd2d7b06	-0.042353652
76	0xbd508932	-0.05091209
77	0xbda95d9a	-0.08269806
78	0xbc838c08	-0.016057983
79	0xbd9f7b1d	-0.07787154
80	0x3d20a698	0.039221376
81	0xbb883f20	-0.0041579157
82	0x3cb878b4	0.022518493
83	0xbd3d9e68	-0.046293646
84	0xbd4c3ee3	-0.04986466
85	0x3d784390	0.060611308
86	0x3da106a2	0.07862593
87	0xbccd1a70	-0.02503702
88	0xbda70194	-0.08154598
89	0xbcc10e7c	-0.023566477
90	0xbd7946b8	-0.06085846
91	0xbc6748f8	-0.014116518
92	0x3cee140c	0.029062293
93	0xbd66e865	-0.056373972
94	0xbd01bfaf	-0.031676944
95	0xbb1815c0	-0.0023206323
96	0x3cc1af80	0.023643255
97	0x3ce3b364	0.027795501
98	0xbda00cc7	-0.07814937
99	0x3da39fea	0.079894856
100	0x3d45458c	0.04816203
101	0xbd574697	-0.052557554
102	0xbcd22de6	-0.025656652
103	0x3d4816ac	0.048849747
104	0xbdb30fe4	-0.08743265
105	0x3d5bed84	0.05369331
106	0xbcc0f658	-0.023554966
107	0x3c1a17f0	0.009405121
108	0x3ce2788c	0.027645372
109	0x3da62ce2	0.081140295
110	0x3d557bc4	0.052119985
111	0x3ca45534	0.02006016
112	0xbcae2028	-0.021255568
113	0x3d1d2724	0.038367406
114	0x3ca913bc	0.020639293
115	0x3d9e3950	0.07725775
116	0x3d64e2d8	0.055880398
117	0xbcb19758	-0.021678612
118	0x3aed92c0	0.00181254
119	0x392f7000	0.00016731024
120	0xbd7d596a	-0.06185285
121	0x3d2a25c4	0.041539922
122	0xbcb0ab08	-0.021565929
123	0x3d5b660c	0.053564116
124	0xbd430652	-0.04761345
125	0x3d35d11c	0.044388875
126	0x3d84d272	0.06485452
127	0x3d203f18	0.03912267
